…
I0821 23:50:05.588901  7918 net.cpp:322] The NetState phase (0) differed from the phase (1) specified by a rule in layer accuracy
I0821 23:50:05.589088  7918 net.cpp:58] Initializing net from parameters: 
name: "CaffeNet"
state {
  phase: TRAIN
  level: 0
  stage: ""
}
layer {
  name: "data"
  type: "Data"
  top: "data"
  top: "label"
  include {
    phase: TRAIN
  }
  transform_param {
    mirror: true
    crop_size: 64
    mean_file: "/home/ubuntu/Documents/chitrang/Deep_Learning_Car_295B/mean.binaryproto"
  }
  data_param {
    source: "/home/ubuntu/Documents/chitrang/Deep_Learning_Car_295B/train_lmdb"
    batch_size: 30
    backend: LMDB
  }
}
layer {
  name: "conv1"
  type: "Convolution"
  bottom: "data"
  top: "conv1"
  param {
    lr_mult: 1
    decay_mult: 1
  }
  param {
    lr_mult: 2
    decay_mult: 0
  }
  convolution_param {
    num_output: 96
    kernel_size: 11
    stride: 4
    weight_filler {
      type: "gaussian"
      std: 0.01
    }
    bias_filler {
      type: "constant"
      value: 0
    }
  }
}
layer {
  name: "relu1"
  type: "ReLU"
  bottom: "conv1"
  top: "conv1"
}
layer {
  name: "pool1"
  type: "Pooling"
  bottom: "conv1"
  top: "pool1"
  pooling_param {
    pool: MAX
    kernel_size: 3
    stride: 2
  }
}
layer {
  name: "norm1"
  type: "LRN"
  bottom: "pool1"
  top: "norm1"
  lrn_param {
    local_size: 5
    alpha: 0.0001
    beta: 0.75
  }
}
layer {
  name: "conv2"
  type: "Convolution"
  bottom: "norm1"
  top: "conv2"
  param {
    lr_mult: 1
    decay_mult: 1
  }
  param {
    lr_mult: 2
    decay_mult: 0
  }
  convolution_param {
    num_output: 256
    pad: 2
    kernel_size: 5
    group: 2
    weight_filler {
      type: "gaussian"
      std: 0.01
    }
    bias_filler {
      type: "constant"
      value: 1
    }
  }
}
layer {
  name: "relu2"
  type: "ReLU"
  bottom: "conv2"
  top: "conv2"
}
layer {
  name: "pool2"
  type: "Pooling"
  bottom: "conv2"
  top: "pool2"
  pooling_param {
    pool: MAX
    kernel_size: 3
    stride: 2
  }
}
layer {
  name: "norm2"
  type: "LRN"
  bottom: "pool2"
  top: "norm2"
  lrn_param {
    local_size: 5
    alpha: 0.0001
    beta: 0.75
  }
}
layer {
  name: "conv3"
  type: "Convolution"
  bottom: "norm2"
  top: "conv3"
  param {
    lr_mult: 1
    decay_mult: 1
  }
  param {
    lr_mult: 2
    decay_mult: 0
  }
  convolution_param {
    num_output: 384
    pad: 1
    kernel_size: 3
    weight_filler {
      type: "gaussian"
      std: 0.01
    }
    bias_filler {
      type: "constant"
      value: 0
    }
  }
}
layer {
  name: "relu3"
  type: "ReLU"
  bottom: "conv3"
  top: "conv3"
}
layer {
  name: "conv4"
  type: "Convolution"
  bottom: "conv3"
  top: "conv4"
  param {
    lr_mult: 1
    decay_mult: 1
  }
  param {
    lr_mult: 2
    decay_mult: 0
  }
  convolution_param {
    num_output: 384
    pad: 1
    kernel_size: 3
    group: 2
    weight_filler {
      type: "gaussian"
      std: 0.01
    }
    bias_filler {
      type: "constant"
      value: 1
    }
  }
}
layer {
  name: "relu4"
  type: "ReLU"
  bottom: "conv4"
  top: "conv4"
}
layer {
  name: "conv5"
  type: "Convolution"
  bottom: "conv4"
  top: "conv5"
  param {
    lr_mult: 1
    decay_mult: 1
  }
  param {
    lr_mult: 2
    decay_mult: 0
  }
  convolution_param {
    num_output: 256
    pad: 1
    kernel_size: 3
    group: 2
    weight_filler {
      type: "gaussian"
      std: 0.01
    }
    bias_filler {
      type: "constant"
      value: 1
    }
  }
}
layer {
  name: "relu5"
  type: "ReLU"
  bottom: "conv5"
  top: "conv5"
}
layer {
  name: "pool5"
  type: "Pooling"
  bottom: "conv5"
  top: "pool5"
  pooling_param {
    pool: MAX
    kernel_size: 3
    stride: 2
  }
}
layer {
  name: "fc6"
  type: "InnerProduct"
  bottom: "pool5"
  top: "fc6"
  param {
    lr_mult: 1
    decay_mult: 1
  }
  param {
    lr_mult: 2
    decay_mult: 0
  }
  inner_product_param {
    num_output: 4096
    weight_filler {
      type: "gaussian"
      std: 0.005
    }
    bias_filler {
      type: "constant"
      value: 1
    }
  }
}
layer {
  name: "relu6"
  type: "ReLU"
  bottom: "fc6"
  top: "fc6"
}
layer {
  name: "drop6"
  type: "Dropout"
  bottom: "fc6"
  top: "fc6"
  dropout_param {
    dropout_ratio: 0.5
  }
}
layer {
  name: "fc7"
  type: "InnerProduct"
  bottom: "fc6"
  top: "fc7"
  param {
    lr_mult: 1
    decay_mult: 1
  }
  param {
    lr_mult: 2
    decay_mult: 0
  }
  inner_product_param {
    num_output: 4096
    weight_filler {
      type: "gaussian"
      std: 0.005
    }
    bias_filler {
      type: "constant"
      value: 1
    }
  }
}
layer {
  name: "relu7"
  type: "ReLU"
  bottom: "fc7"
  top: "fc7"
}
layer {
  name: "drop7"
  type: "Dropout"
  bottom: "fc7"
  top: "fc7"
  dropout_param {
    dropout_ratio: 0.5
  }
}
layer {
  name: "fc8"
  type: "InnerProduct"
  bottom: "fc7"
  top: "fc8"
  param {
    lr_mult: 1
    decay_mult: 1
  }
  param {
    lr_mult: 2
    decay_mult: 0
  }
  inner_product_param {
    num_output: 2
    weight_filler {
      type: "gaussian"
      std: 0.01
    }
    bias_filler {
      type: "constant"
      value: 0
    }
  }
}
layer {
  name: "loss"
  type: "SoftmaxWithLoss"
  bottom: "fc8"
  bottom: "label"
  top: "loss"
}
I0821 23:50:05.591132  7918 layer_factory.hpp:77] Creating layer data
I0821 23:50:05.592326  7918 net.cpp:100] Creating Layer data
I0821 23:50:05.592430  7918 net.cpp:408] data -> data
I0821 23:50:05.592555  7918 net.cpp:408] data -> label
I0821 23:50:05.592664  7918 data_transformer.cpp:25] Loading mean file from: /home/ubuntu/Documents/chitrang/Deep_Learning_Car_295B/mean.binaryproto
I0821 23:50:05.671948  7926 db_lmdb.cpp:35] Opened lmdb /home/ubuntu/Documents/chitrang/Deep_Learning_Car_295B/train_lmdb
I0821 23:50:05.918670  7918 data_layer.cpp:41] output data size: 30,3,64,64
I0821 23:50:05.943116  7918 net.cpp:150] Setting up data
I0821 23:50:05.943655  7918 net.cpp:157] Top shape: 30 3 64 64 (368640)
I0821 23:50:05.943903  7918 net.cpp:157] Top shape: 30 (30)
I0821 23:50:05.944106  7918 net.cpp:165] Memory required for data: 1474680
I0821 23:50:05.951509  7918 layer_factory.hpp:77] Creating layer conv1
I0821 23:50:05.951697  7918 net.cpp:100] Creating Layer conv1
I0821 23:50:05.951792  7918 net.cpp:434] conv1 <- data
I0821 23:50:05.951922  7918 net.cpp:408] conv1 -> conv1
I0821 23:50:05.959919  7918 net.cpp:150] Setting up conv1
I0821 23:50:05.960312  7918 net.cpp:157] Top shape: 30 96 14 14 (564480)
I0821 23:50:05.962152  7918 net.cpp:165] Memory required for data: 3732600
I0821 23:50:05.962276  7918 layer_factory.hpp:77] Creating layer relu1
I0821 23:50:05.962373  7918 net.cpp:100] Creating Layer relu1
I0821 23:50:05.962447  7918 net.cpp:434] relu1 <- conv1
I0821 23:50:05.962528  7918 net.cpp:395] relu1 -> conv1 (in-place)
I0821 23:50:05.962623  7918 net.cpp:150] Setting up relu1
I0821 23:50:05.962703  7918 net.cpp:157] Top shape: 30 96 14 14 (564480)
I0821 23:50:05.962785  7918 net.cpp:165] Memory required for data: 5990520
I0821 23:50:05.962889  7918 layer_factory.hpp:77] Creating layer pool1
I0821 23:50:05.962971  7918 net.cpp:100] Creating Layer pool1
I0821 23:50:05.963044  7918 net.cpp:434] pool1 <- conv1
I0821 23:50:05.963124  7918 net.cpp:408] pool1 -> pool1
I0821 23:50:05.992974  7918 net.cpp:150] Setting up pool1
I0821 23:50:05.996454  7918 net.cpp:157] Top shape: 30 96 7 7 (141120)
I0821 23:50:05.996963  7918 net.cpp:165] Memory required for data: 6555000
I0821 23:50:05.997448  7918 layer_factory.hpp:77] Creating layer norm1
I0821 23:50:05.997985  7918 net.cpp:100] Creating Layer norm1
I0821 23:50:05.998643  7918 net.cpp:434] norm1 <- pool1
I0821 23:50:05.999047  7918 net.cpp:408] norm1 -> norm1
I0821 23:50:05.999656  7918 net.cpp:150] Setting up norm1
I0821 23:50:06.000068  7918 net.cpp:157] Top shape: 30 96 7 7 (141120)
I0821 23:50:06.000450  7918 net.cpp:165] Memory required for data: 7119480
I0821 23:50:06.000805  7918 layer_factory.hpp:77] Creating layer conv2
I0821 23:50:06.001232  7918 net.cpp:100] Creating Layer conv2
I0821 23:50:06.001590  7918 net.cpp:434] conv2 <- norm1
I0821 23:50:06.001992  7918 net.cpp:408] conv2 -> conv2
I0821 23:50:06.089316  7918 net.cpp:150] Setting up conv2
I0821 23:50:06.089897  7918 net.cpp:157] Top shape: 30 256 7 7 (376320)
I0821 23:50:06.090137  7918 net.cpp:165] Memory required for data: 8624760
I0821 23:50:06.090404  7918 layer_factory.hpp:77] Creating layer relu2
I0821 23:50:06.090595  7918 net.cpp:100] Creating Layer relu2
I0821 23:50:06.090700  7918 net.cpp:434] relu2 <- conv2
I0821 23:50:06.090823  7918 net.cpp:395] relu2 -> conv2 (in-place)
I0821 23:50:06.090945  7918 net.cpp:150] Setting up relu2
I0821 23:50:06.091039  7918 net.cpp:157] Top shape: 30 256 7 7 (376320)
I0821 23:50:06.091214  7918 net.cpp:165] Memory required for data: 10130040
I0821 23:50:06.091331  7918 layer_factory.hpp:77] Creating layer pool2
I0821 23:50:06.091469  7918 net.cpp:100] Creating Layer pool2
I0821 23:50:06.091707  7918 net.cpp:434] pool2 <- conv2
I0821 23:50:06.091832  7918 net.cpp:408] pool2 -> pool2
I0821 23:50:06.092044  7918 net.cpp:150] Setting up pool2
I0821 23:50:06.092186  7918 net.cpp:157] Top shape: 30 256 3 3 (69120)
I0821 23:50:06.092298  7918 net.cpp:165] Memory required for data: 10406520
I0821 23:50:06.092391  7918 layer_factory.hpp:77] Creating layer norm2
I0821 23:50:06.092532  7918 net.cpp:100] Creating Layer norm2
I0821 23:50:06.092746  7918 net.cpp:434] norm2 <- pool2
I0821 23:50:06.093087  7918 net.cpp:408] norm2 -> norm2
I0821 23:50:06.093531  7918 net.cpp:150] Setting up norm2
I0821 23:50:06.093848  7918 net.cpp:157] Top shape: 30 256 3 3 (69120)
I0821 23:50:06.094177  7918 net.cpp:165] Memory required for data: 10683000
I0821 23:50:06.094483  7918 layer_factory.hpp:77] Creating layer conv3
I0821 23:50:06.094831  7918 net.cpp:100] Creating Layer conv3
I0821 23:50:06.095145  7918 net.cpp:434] conv3 <- norm2
I0821 23:50:06.095474  7918 net.cpp:408] conv3 -> conv3
I0821 23:50:06.247700  7918 net.cpp:150] Setting up conv3
I0821 23:50:06.248000  7918 net.cpp:157] Top shape: 30 384 3 3 (103680)
I0821 23:50:06.248205  7918 net.cpp:165] Memory required for data: 11097720
I0821 23:50:06.248425  7918 layer_factory.hpp:77] Creating layer relu3
I0821 23:50:06.248618  7918 net.cpp:100] Creating Layer relu3
I0821 23:50:06.248805  7918 net.cpp:434] relu3 <- conv3
I0821 23:50:06.248991  7918 net.cpp:395] relu3 -> conv3 (in-place)
I0821 23:50:06.249177  7918 net.cpp:150] Setting up relu3
I0821 23:50:06.249351  7918 net.cpp:157] Top shape: 30 384 3 3 (103680)
I0821 23:50:06.249532  7918 net.cpp:165] Memory required for data: 11512440
I0821 23:50:06.249704  7918 layer_factory.hpp:77] Creating layer conv4
I0821 23:50:06.249912  7918 net.cpp:100] Creating Layer conv4
I0821 23:50:06.250092  7918 net.cpp:434] conv4 <- conv3
I0821 23:50:06.250274  7918 net.cpp:408] conv4 -> conv4
I0821 23:50:06.338960  7918 net.cpp:150] Setting up conv4
I0821 23:50:06.339232  7918 net.cpp:157] Top shape: 30 384 3 3 (103680)
I0821 23:50:06.339432  7918 net.cpp:165] Memory required for data: 11927160
I0821 23:50:06.339645  7918 layer_factory.hpp:77] Creating layer relu4
I0821 23:50:06.339846  7918 net.cpp:100] Creating Layer relu4
I0821 23:50:06.340041  7918 net.cpp:434] relu4 <- conv4
I0821 23:50:06.340229  7918 net.cpp:395] relu4 -> conv4 (in-place)
I0821 23:50:06.340427  7918 net.cpp:150] Setting up relu4
I0821 23:50:06.340606  7918 net.cpp:157] Top shape: 30 384 3 3 (103680)
I0821 23:50:06.340869  7918 net.cpp:165] Memory required for data: 12341880
I0821 23:50:06.341050  7918 layer_factory.hpp:77] Creating layer conv5
I0821 23:50:06.341243  7918 net.cpp:100] Creating Layer conv5
I0821 23:50:06.341418  7918 net.cpp:434] conv5 <- conv4
I0821 23:50:06.341601  7918 net.cpp:408] conv5 -> conv5
I0821 23:50:06.404625  7918 net.cpp:150] Setting up conv5
I0821 23:50:06.404865  7918 net.cpp:157] Top shape: 30 256 3 3 (69120)
I0821 23:50:06.404963  7918 net.cpp:165] Memory required for data: 12618360
I0821 23:50:06.405066  7918 layer_factory.hpp:77] Creating layer relu5
I0821 23:50:06.405143  7918 net.cpp:100] Creating Layer relu5
I0821 23:50:06.405206  7918 net.cpp:434] relu5 <- conv5
I0821 23:50:06.405274  7918 net.cpp:395] relu5 -> conv5 (in-place)
I0821 23:50:06.405345  7918 net.cpp:150] Setting up relu5
I0821 23:50:06.405400  7918 net.cpp:157] Top shape: 30 256 3 3 (69120)
I0821 23:50:06.405468  7918 net.cpp:165] Memory required for data: 12894840
I0821 23:50:06.405522  7918 layer_factory.hpp:77] Creating layer pool5
I0821 23:50:06.405583  7918 net.cpp:100] Creating Layer pool5
I0821 23:50:06.405637  7918 net.cpp:434] pool5 <- conv5
I0821 23:50:06.405697  7918 net.cpp:408] pool5 -> pool5
I0821 23:50:06.405855  7918 net.cpp:150] Setting up pool5
I0821 23:50:06.405917  7918 net.cpp:157] Top shape: 30 256 1 1 (7680)
I0821 23:50:06.405977  7918 net.cpp:165] Memory required for data: 12925560
I0821 23:50:06.406031  7918 layer_factory.hpp:77] Creating layer fc6
I0821 23:50:06.406108  7918 net.cpp:100] Creating Layer fc6
I0821 23:50:06.406165  7918 net.cpp:434] fc6 <- pool5
I0821 23:50:06.406231  7918 net.cpp:408] fc6 -> fc6
I0821 23:50:06.571650  7918 net.cpp:150] Setting up fc6
I0821 23:50:06.571786  7918 net.cpp:157] Top shape: 30 4096 (122880)
I0821 23:50:06.571889  7918 net.cpp:165] Memory required for data: 13417080
I0821 23:50:06.571977  7918 layer_factory.hpp:77] Creating layer relu6
I0821 23:50:06.572055  7918 net.cpp:100] Creating Layer relu6
I0821 23:50:06.572126  7918 net.cpp:434] relu6 <- fc6
I0821 23:50:06.572201  7918 net.cpp:395] relu6 -> fc6 (in-place)
I0821 23:50:06.572278  7918 net.cpp:150] Setting up relu6
I0821 23:50:06.572341  7918 net.cpp:157] Top shape: 30 4096 (122880)
I0821 23:50:06.572403  7918 net.cpp:165] Memory required for data: 13908600
I0821 23:50:06.572458  7918 layer_factory.hpp:77] Creating layer drop6
I0821 23:50:06.572530  7918 net.cpp:100] Creating Layer drop6
I0821 23:50:06.572588  7918 net.cpp:434] drop6 <- fc6
I0821 23:50:06.572651  7918 net.cpp:395] drop6 -> fc6 (in-place)
I0821 23:50:06.572780  7918 net.cpp:150] Setting up drop6
I0821 23:50:06.572852  7918 net.cpp:157] Top shape: 30 4096 (122880)
I0821 23:50:06.572918  7918 net.cpp:165] Memory required for data: 14400120
I0821 23:50:06.572976  7918 layer_factory.hpp:77] Creating layer fc7
I0821 23:50:06.573043  7918 net.cpp:100] Creating Layer fc7
I0821 23:50:06.573101  7918 net.cpp:434] fc7 <- fc6
I0821 23:50:06.573165  7918 net.cpp:408] fc7 -> fc7
I0821 23:50:08.508170  7918 net.cpp:150] Setting up fc7
I0821 23:50:08.508415  7918 net.cpp:157] Top shape: 30 4096 (122880)
I0821 23:50:08.508544  7918 net.cpp:165] Memory required for data: 14891640
I0821 23:50:08.508667  7918 layer_factory.hpp:77] Creating layer relu7
I0821 23:50:08.508787  7918 net.cpp:100] Creating Layer relu7
I0821 23:50:08.508913  7918 net.cpp:434] relu7 <- fc7
I0821 23:50:08.509027  7918 net.cpp:395] relu7 -> fc7 (in-place)
I0821 23:50:08.509147  7918 net.cpp:150] Setting up relu7
I0821 23:50:08.509255  7918 net.cpp:157] Top shape: 30 4096 (122880)
I0821 23:50:08.509366  7918 net.cpp:165] Memory required for data: 15383160
I0821 23:50:08.509472  7918 layer_factory.hpp:77] Creating layer drop7
I0821 23:50:08.509584  7918 net.cpp:100] Creating Layer drop7
I0821 23:50:08.509691  7918 net.cpp:434] drop7 <- fc7
I0821 23:50:08.509801  7918 net.cpp:395] drop7 -> fc7 (in-place)
I0821 23:50:08.509970  7918 net.cpp:150] Setting up drop7
I0821 23:50:08.510082  7918 net.cpp:157] Top shape: 30 4096 (122880)
I0821 23:50:08.510221  7918 net.cpp:165] Memory required for data: 15874680
I0821 23:50:08.510356  7918 layer_factory.hpp:77] Creating layer fc8
I0821 23:50:08.510473  7918 net.cpp:100] Creating Layer fc8
I0821 23:50:08.510579  7918 net.cpp:434] fc8 <- fc7
I0821 23:50:08.510691  7918 net.cpp:408] fc8 -> fc8
I0821 23:50:08.511855  7918 net.cpp:150] Setting up fc8
I0821 23:50:08.511976  7918 net.cpp:157] Top shape: 30 2 (60)
I0821 23:50:08.512128  7918 net.cpp:165] Memory required for data: 15874920
I0821 23:50:08.512248  7918 layer_factory.hpp:77] Creating layer loss
I0821 23:50:08.512367  7918 net.cpp:100] Creating Layer loss
I0821 23:50:08.512478  7918 net.cpp:434] loss <- fc8
I0821 23:50:08.512588  7918 net.cpp:434] loss <- label
I0821 23:50:08.512706  7918 net.cpp:408] loss -> loss
I0821 23:50:08.512850  7918 layer_factory.hpp:77] Creating layer loss
…
I0821 23:50:08.525670  7918 net.cpp:322] The NetState phase (1) differed from the phase (0) specified by a rule in layer data
I0821 23:50:08.525857  7918 net.cpp:58] Initializing net from parameters: 
name: "CaffeNet"
state {
  phase: TEST
}
layer {
  name: "data"
  type: "Data"
  top: "data"
  top: "label"
  include {
    phase: TEST
  }
  transform_param {
    mirror: false
    crop_size: 64
    mean_file: "/home/ubuntu/Documents/chitrang/Deep_Learning_Car_295B/mean.binaryproto"
  }
  data_param {
    source: "/home/ubuntu/Documents/chitrang/Deep_Learning_Car_295B/validation_lmdb"
    batch_size: 30
    backend: LMDB
  }
}
layer {
  name: "conv1"
  type: "Convolution"
  bottom: "data"
  top: "conv1"
  param {
    lr_mult: 1
    decay_mult: 1
  }
  param {
    lr_mult: 2
    decay_mult: 0
  }
  convolution_param {
    num_output: 96
    kernel_size: 11
    stride: 4
    weight_filler {
      type: "gaussian"
      std: 0.01
    }
    bias_filler {
      type: "constant"
      value: 0
    }
  }
}
layer {
  name: "relu1"
  type: "ReLU"
  bottom: "conv1"
  top: "conv1"
}
layer {
  name: "pool1"
  type: "Pooling"
  bottom: "conv1"
  top: "pool1"
  pooling_param {
    pool: MAX
    kernel_size: 3
    stride: 2
  }
}
layer {
  name: "norm1"
  type: "LRN"
  bottom: "pool1"
  top: "norm1"
  lrn_param {
    local_size: 5
    alpha: 0.0001
    beta: 0.75
  }
}
layer {
  name: "conv2"
  type: "Convolution"
  bottom: "norm1"
  top: "conv2"
  param {
    lr_mult: 1
    decay_mult: 1
  }
  param {
    lr_mult: 2
    decay_mult: 0
  }
  convolution_param {
    num_output: 256
    pad: 2
    kernel_size: 5
    group: 2
    weight_filler {
      type: "gaussian"
      std: 0.01
    }
    bias_filler {
      type: "constant"
      value: 1
    }
  }
}
layer {
  name: "relu2"
  type: "ReLU"
  bottom: "conv2"
  top: "conv2"
}
layer {
  name: "pool2"
  type: "Pooling"
  bottom: "conv2"
  top: "pool2"
  pooling_param {
    pool: MAX
    kernel_size: 3
    stride: 2
  }
}
layer {
  name: "norm2"
  type: "LRN"
  bottom: "pool2"
  top: "norm2"
  lrn_param {
    local_size: 5
    alpha: 0.0001
    beta: 0.75
  }
}
layer {
  name: "conv3"
  type: "Convolution"
  bottom: "norm2"
  top: "conv3"
  param {
    lr_mult: 1
    decay_mult: 1
  }
  param {
    lr_mult: 2
    decay_mult: 0
  }
  convolution_param {
    num_output: 384
    pad: 1
    kernel_size: 3
    weight_filler {
      type: "gaussian"
      std: 0.01
    }
    bias_filler {
      type: "constant"
      value: 0
    }
  }
}
layer {
  name: "relu3"
  type: "ReLU"
  bottom: "conv3"
  top: "conv3"
}
layer {
  name: "conv4"
  type: "Convolution"
  bottom: "conv3"
  top: "conv4"
  param {
    lr_mult: 1
    decay_mult: 1
  }
  param {
    lr_mult: 2
    decay_mult: 0
  }
  convolution_param {
    num_output: 384
    pad: 1
    kernel_size: 3
    group: 2
    weight_filler {
      type: "gaussian"
      std: 0.01
    }
    bias_filler {
      type: "constant"
      value: 1
    }
  }
}
layer {
  name: "relu4"
  type: "ReLU"
  bottom: "conv4"
  top: "conv4"
}
layer {
  name: "conv5"
  type: "Convolution"
  bottom: "conv4"
  top: "conv5"
  param {
    lr_mult: 1
    decay_mult: 1
  }
  param {
    lr_mult: 2
    decay_mult: 0
  }
  convolution_param {
    num_output: 256
    pad: 1
    kernel_size: 3
    group: 2
    weight_filler {
      type: "gaussian"
      std: 0.01
    }
    bias_filler {
      type: "constant"
      value: 1
    }
  }
}
layer {
  name: "relu5"
  type: "ReLU"
  bottom: "conv5"
  top: "conv5"
}
layer {
  name: "pool5"
  type: "Pooling"
  bottom: "conv5"
  top: "pool5"
  pooling_param {
    pool: MAX
    kernel_size: 3
    stride: 2
  }
}
layer {
  name: "fc6"
  type: "InnerProduct"
  bottom: "pool5"
  top: "fc6"
  param {
    lr_mult: 1
    decay_mult: 1
  }
  param {
    lr_mult: 2
    decay_mult: 0
  }
  inner_product_param {
    num_output: 4096
    weight_filler {
      type: "gaussian"
      std: 0.005
    }
    bias_filler {
      type: "constant"
      value: 1
    }
  }
}
layer {
  name: "relu6"
  type: "ReLU"
  bottom: "fc6"
  top: "fc6"
}
layer {
  name: "drop6"
  type: "Dropout"
  bottom: "fc6"
  top: "fc6"
  dropout_param {
    dropout_ratio: 0.5
  }
}
layer {
  name: "fc7"
  type: "InnerProduct"
  bottom: "fc6"
  top: "fc7"
  param {
    lr_mult: 1
    decay_mult: 1
  }
  param {
    lr_mult: 2
    decay_mult: 0
  }
  inner_product_param {
    num_output: 4096
    weight_filler {
      type: "gaussian"
      std: 0.005
    }
    bias_filler {
      type: "constant"
      value: 1
    }
  }
}
layer {
  name: "relu7"
  type: "ReLU"
  bottom: "fc7"
  top: "fc7"
}
layer {
  name: "drop7"
  type: "Dropout"
  bottom: "fc7"
  top: "fc7"
  dropout_param {
    dropout_ratio: 0.5
  }
}
layer {
  name: "fc8"
  type: "InnerProduct"
  bottom: "fc7"
  top: "fc8"
  param {
    lr_mult: 1
    decay_mult: 1
  }
  param {
    lr_mult: 2
    decay_mult: 0
  }
  inner_product_param {
    num_output: 2
    weight_filler {
      type: "gaussian"
      std: 0.01
    }
    bias_filler {
      type: "constant"
      value: 0
    }
  }
}
layer {
  name: "accuracy"
  type: "Accuracy"
  bottom: "fc8"
  bottom: "label"
  top: "accuracy"
  include {
    phase: TEST
  }
}
layer {
  name: "loss"
  type: "SoftmaxWithLoss"
  bottom: "fc8"
  bottom: "label"
  top: "loss"
}
I0821 23:50:08.527397  7918 layer_factory.hpp:77] Creating layer data
I0821 23:50:08.527606  7918 net.cpp:100] Creating Layer data
I0821 23:50:08.527664  7918 net.cpp:408] data -> data
I0821 23:50:08.527726  7918 net.cpp:408] data -> label
I0821 23:50:08.527781  7918 data_transformer.cpp:25] Loading mean file from: /home/ubuntu/Documents/chitrang/Deep_Learning_Car_295B/mean.binaryproto
I0821 23:50:08.529472  7928 db_lmdb.cpp:35] Opened lmdb /home/ubuntu/Documents/chitrang/Deep_Learning_Car_295B/validation_lmdb
I0821 23:50:08.529738  7918 data_layer.cpp:41] output data size: 30,3,64,64
I0821 23:50:08.564659  7918 net.cpp:150] Setting up data
I0821 23:50:08.564920  7918 net.cpp:157] Top shape: 30 3 64 64 (368640)
I0821 23:50:08.565048  7918 net.cpp:157] Top shape: 30 (30)
I0821 23:50:08.565155  7918 net.cpp:165] Memory required for data: 1474680
I0821 23:50:08.565261  7918 layer_factory.hpp:77] Creating layer label_data_1_split
I0821 23:50:08.565500  7918 net.cpp:100] Creating Layer label_data_1_split
I0821 23:50:08.565619  7918 net.cpp:434] label_data_1_split <- label
I0821 23:50:08.565731  7918 net.cpp:408] label_data_1_split -> label_data_1_split_0
I0821 23:50:08.565857  7918 net.cpp:408] label_data_1_split -> label_data_1_split_1
I0821 23:50:08.566107  7918 net.cpp:150] Setting up label_data_1_split
I0821 23:50:08.566228  7918 net.cpp:157] Top shape: 30 (30)
I0821 23:50:08.566345  7918 net.cpp:157] Top shape: 30 (30)
I0821 23:50:08.566453  7918 net.cpp:165] Memory required for data: 1474920
I0821 23:50:08.566576  7918 layer_factory.hpp:77] Creating layer conv1
I0821 23:50:08.566699  7918 net.cpp:100] Creating Layer conv1
I0821 23:50:08.566843  7918 net.cpp:434] conv1 <- data
I0821 23:50:08.566961  7918 net.cpp:408] conv1 -> conv1
I0821 23:50:08.576561  7918 net.cpp:150] Setting up conv1
I0821 23:50:08.576808  7918 net.cpp:157] Top shape: 30 96 14 14 (564480)
I0821 23:50:08.576951  7918 net.cpp:165] Memory required for data: 3732840
I0821 23:50:08.577080  7918 layer_factory.hpp:77] Creating layer relu1
I0821 23:50:08.577198  7918 net.cpp:100] Creating Layer relu1
I0821 23:50:08.577306  7918 net.cpp:434] relu1 <- conv1
I0821 23:50:08.577419  7918 net.cpp:395] relu1 -> conv1 (in-place)
I0821 23:50:08.577536  7918 net.cpp:150] Setting up relu1
I0821 23:50:08.577644  7918 net.cpp:157] Top shape: 30 96 14 14 (564480)
I0821 23:50:08.577755  7918 net.cpp:165] Memory required for data: 5990760
I0821 23:50:08.577870  7918 layer_factory.hpp:77] Creating layer pool1
I0821 23:50:08.577987  7918 net.cpp:100] Creating Layer pool1
I0821 23:50:08.578094  7918 net.cpp:434] pool1 <- conv1
I0821 23:50:08.578207  7918 net.cpp:408] pool1 -> pool1
I0821 23:50:08.578387  7918 net.cpp:150] Setting up pool1
I0821 23:50:08.578500  7918 net.cpp:157] Top shape: 30 96 7 7 (141120)
I0821 23:50:08.578611  7918 net.cpp:165] Memory required for data: 6555240
I0821 23:50:08.578718  7918 layer_factory.hpp:77] Creating layer norm1
I0821 23:50:08.578840  7918 net.cpp:100] Creating Layer norm1
I0821 23:50:08.578949  7918 net.cpp:434] norm1 <- pool1
I0821 23:50:08.579061  7918 net.cpp:408] norm1 -> norm1
I0821 23:50:08.579231  7918 net.cpp:150] Setting up norm1
I0821 23:50:08.579340  7918 net.cpp:157] Top shape: 30 96 7 7 (141120)
I0821 23:50:08.579452  7918 net.cpp:165] Memory required for data: 7119720
I0821 23:50:08.579558  7918 layer_factory.hpp:77] Creating layer conv2
I0821 23:50:08.579679  7918 net.cpp:100] Creating Layer conv2
I0821 23:50:08.579785  7918 net.cpp:434] conv2 <- norm1
I0821 23:50:08.579905  7918 net.cpp:408] conv2 -> conv2
I0821 23:50:08.635972  7918 net.cpp:150] Setting up conv2
I0821 23:50:08.636272  7918 net.cpp:157] Top shape: 30 256 7 7 (376320)
I0821 23:50:08.636467  7918 net.cpp:165] Memory required for data: 8625000
I0821 23:50:08.636734  7918 layer_factory.hpp:77] Creating layer relu2
I0821 23:50:08.636930  7918 net.cpp:100] Creating Layer relu2
I0821 23:50:08.637110  7918 net.cpp:434] relu2 <- conv2
I0821 23:50:08.637292  7918 net.cpp:395] relu2 -> conv2 (in-place)
I0821 23:50:08.637478  7918 net.cpp:150] Setting up relu2
I0821 23:50:08.637652  7918 net.cpp:157] Top shape: 30 256 7 7 (376320)
I0821 23:50:08.637830  7918 net.cpp:165] Memory required for data: 10130280
I0821 23:50:08.638012  7918 layer_factory.hpp:77] Creating layer pool2
I0821 23:50:08.638202  7918 net.cpp:100] Creating Layer pool2
I0821 23:50:08.638375  7918 net.cpp:434] pool2 <- conv2
I0821 23:50:08.638556  7918 net.cpp:408] pool2 -> pool2
I0821 23:50:08.638828  7918 net.cpp:150] Setting up pool2
I0821 23:50:08.639014  7918 net.cpp:157] Top shape: 30 256 3 3 (69120)
I0821 23:50:08.639194  7918 net.cpp:165] Memory required for data: 10406760
I0821 23:50:08.639365  7918 layer_factory.hpp:77] Creating layer norm2
I0821 23:50:08.639545  7918 net.cpp:100] Creating Layer norm2
I0821 23:50:08.639719  7918 net.cpp:434] norm2 <- pool2
I0821 23:50:08.639906  7918 net.cpp:408] norm2 -> norm2
I0821 23:50:08.640143  7918 net.cpp:150] Setting up norm2
I0821 23:50:08.640337  7918 net.cpp:157] Top shape: 30 256 3 3 (69120)
I0821 23:50:08.640535  7918 net.cpp:165] Memory required for data: 10683240
I0821 23:50:08.640712  7918 layer_factory.hpp:77] Creating layer conv3
I0821 23:50:08.640911  7918 net.cpp:100] Creating Layer conv3
I0821 23:50:08.641142  7918 net.cpp:434] conv3 <- norm2
I0821 23:50:08.641326  7918 net.cpp:408] conv3 -> conv3
I0821 23:50:08.781436  7918 net.cpp:150] Setting up conv3
I0821 23:50:08.781580  7918 net.cpp:157] Top shape: 30 384 3 3 (103680)
I0821 23:50:08.781659  7918 net.cpp:165] Memory required for data: 11097960
I0821 23:50:08.781752  7918 layer_factory.hpp:77] Creating layer relu3
I0821 23:50:08.781828  7918 net.cpp:100] Creating Layer relu3
I0821 23:50:08.781888  7918 net.cpp:434] relu3 <- conv3
I0821 23:50:08.781947  7918 net.cpp:395] relu3 -> conv3 (in-place)
I0821 23:50:08.782008  7918 net.cpp:150] Setting up relu3
I0821 23:50:08.782058  7918 net.cpp:157] Top shape: 30 384 3 3 (103680)
I0821 23:50:08.782110  7918 net.cpp:165] Memory required for data: 11512680
I0821 23:50:08.782163  7918 layer_factory.hpp:77] Creating layer conv4
I0821 23:50:08.782224  7918 net.cpp:100] Creating Layer conv4
I0821 23:50:08.782276  7918 net.cpp:434] conv4 <- conv3
I0821 23:50:08.782342  7918 net.cpp:408] conv4 -> conv4
I0821 23:50:08.857019  7918 net.cpp:150] Setting up conv4
I0821 23:50:08.857173  7918 net.cpp:157] Top shape: 30 384 3 3 (103680)
I0821 23:50:08.857247  7918 net.cpp:165] Memory required for data: 11927400
I0821 23:50:08.857327  7918 layer_factory.hpp:77] Creating layer relu4
I0821 23:50:08.857393  7918 net.cpp:100] Creating Layer relu4
I0821 23:50:08.857448  7918 net.cpp:434] relu4 <- conv4
I0821 23:50:08.857509  7918 net.cpp:395] relu4 -> conv4 (in-place)
I0821 23:50:08.857570  7918 net.cpp:150] Setting up relu4
I0821 23:50:08.857620  7918 net.cpp:157] Top shape: 30 384 3 3 (103680)
I0821 23:50:08.857681  7918 net.cpp:165] Memory required for data: 12342120
I0821 23:50:08.857738  7918 layer_factory.hpp:77] Creating layer conv5
I0821 23:50:08.857805  7918 net.cpp:100] Creating Layer conv5
I0821 23:50:08.857874  7918 net.cpp:434] conv5 <- conv4
I0821 23:50:08.857933  7918 net.cpp:408] conv5 -> conv5
I0821 23:50:08.906441  7918 net.cpp:150] Setting up conv5
I0821 23:50:08.906560  7918 net.cpp:157] Top shape: 30 256 3 3 (69120)
I0821 23:50:08.906630  7918 net.cpp:165] Memory required for data: 12618600
I0821 23:50:08.906714  7918 layer_factory.hpp:77] Creating layer relu5
I0821 23:50:08.906779  7918 net.cpp:100] Creating Layer relu5
I0821 23:50:08.906847  7918 net.cpp:434] relu5 <- conv5
I0821 23:50:08.906913  7918 net.cpp:395] relu5 -> conv5 (in-place)
I0821 23:50:08.906976  7918 net.cpp:150] Setting up relu5
I0821 23:50:08.907027  7918 net.cpp:157] Top shape: 30 256 3 3 (69120)
I0821 23:50:08.907093  7918 net.cpp:165] Memory required for data: 12895080
I0821 23:50:08.907204  7918 layer_factory.hpp:77] Creating layer pool5
I0821 23:50:08.907268  7918 net.cpp:100] Creating Layer pool5
I0821 23:50:08.907313  7918 net.cpp:434] pool5 <- conv5
I0821 23:50:08.907363  7918 net.cpp:408] pool5 -> pool5
I0821 23:50:08.907491  7918 net.cpp:150] Setting up pool5
I0821 23:50:08.907539  7918 net.cpp:157] Top shape: 30 256 1 1 (7680)
I0821 23:50:08.907588  7918 net.cpp:165] Memory required for data: 12925800
I0821 23:50:08.907632  7918 layer_factory.hpp:77] Creating layer fc6
I0821 23:50:08.907688  7918 net.cpp:100] Creating Layer fc6
I0821 23:50:08.907733  7918 net.cpp:434] fc6 <- pool5
I0821 23:50:08.907788  7918 net.cpp:408] fc6 -> fc6
I0821 23:50:09.019924  7918 net.cpp:150] Setting up fc6
I0821 23:50:09.020041  7918 net.cpp:157] Top shape: 30 4096 (122880)
I0821 23:50:09.020115  7918 net.cpp:165] Memory required for data: 13417320
I0821 23:50:09.020186  7918 layer_factory.hpp:77] Creating layer relu6
I0821 23:50:09.020251  7918 net.cpp:100] Creating Layer relu6
I0821 23:50:09.020305  7918 net.cpp:434] relu6 <- fc6
I0821 23:50:09.020361  7918 net.cpp:395] relu6 -> fc6 (in-place)
I0821 23:50:09.020419  7918 net.cpp:150] Setting up relu6
I0821 23:50:09.020467  7918 net.cpp:157] Top shape: 30 4096 (122880)
I0821 23:50:09.020526  7918 net.cpp:165] Memory required for data: 13908840
I0821 23:50:09.020579  7918 layer_factory.hpp:77] Creating layer drop6
I0821 23:50:09.020635  7918 net.cpp:100] Creating Layer drop6
I0821 23:50:09.020681  7918 net.cpp:434] drop6 <- fc6
I0821 23:50:09.020742  7918 net.cpp:395] drop6 -> fc6 (in-place)
I0821 23:50:09.020849  7918 net.cpp:150] Setting up drop6
I0821 23:50:09.020900  7918 net.cpp:157] Top shape: 30 4096 (122880)
I0821 23:50:09.020951  7918 net.cpp:165] Memory required for data: 14400360
I0821 23:50:09.020997  7918 layer_factory.hpp:77] Creating layer fc7
I0821 23:50:09.021052  7918 net.cpp:100] Creating Layer fc7
I0821 23:50:09.021102  7918 net.cpp:434] fc7 <- fc6
I0821 23:50:09.021152  7918 net.cpp:408] fc7 -> fc7
I0821 23:50:10.818912  7918 net.cpp:150] Setting up fc7
I0821 23:50:10.819149  7918 net.cpp:157] Top shape: 30 4096 (122880)
I0821 23:50:10.819275  7918 net.cpp:165] Memory required for data: 14891880
I0821 23:50:10.819398  7918 layer_factory.hpp:77] Creating layer relu7
I0821 23:50:10.819515  7918 net.cpp:100] Creating Layer relu7
I0821 23:50:10.819625  7918 net.cpp:434] relu7 <- fc7
I0821 23:50:10.819737  7918 net.cpp:395] relu7 -> fc7 (in-place)
I0821 23:50:10.819866  7918 net.cpp:150] Setting up relu7
I0821 23:50:10.819977  7918 net.cpp:157] Top shape: 30 4096 (122880)
I0821 23:50:10.820086  7918 net.cpp:165] Memory required for data: 15383400
I0821 23:50:10.820190  7918 layer_factory.hpp:77] Creating layer drop7
I0821 23:50:10.820313  7918 net.cpp:100] Creating Layer drop7
I0821 23:50:10.820420  7918 net.cpp:434] drop7 <- fc7
I0821 23:50:10.820559  7918 net.cpp:395] drop7 -> fc7 (in-place)
I0821 23:50:10.820721  7918 net.cpp:150] Setting up drop7
I0821 23:50:10.820842  7918 net.cpp:157] Top shape: 30 4096 (122880)
I0821 23:50:10.820955  7918 net.cpp:165] Memory required for data: 15874920
I0821 23:50:10.821060  7918 layer_factory.hpp:77] Creating layer fc8
I0821 23:50:10.821177  7918 net.cpp:100] Creating Layer fc8
I0821 23:50:10.821281  7918 net.cpp:434] fc8 <- fc7
I0821 23:50:10.821398  7918 net.cpp:408] fc8 -> fc8
I0821 23:50:10.822579  7918 net.cpp:150] Setting up fc8
I0821 23:50:10.822697  7918 net.cpp:157] Top shape: 30 2 (60)
I0821 23:50:10.822808  7918 net.cpp:165] Memory required for data: 15875160
I0821 23:50:10.822969  7918 layer_factory.hpp:77] Creating layer fc8_fc8_0_split
I0821 23:50:10.823079  7918 net.cpp:100] Creating Layer fc8_fc8_0_split
I0821 23:50:10.823186  7918 net.cpp:434] fc8_fc8_0_split <- fc8
I0821 23:50:10.823297  7918 net.cpp:408] fc8_fc8_0_split -> fc8_fc8_0_split_0
I0821 23:50:10.823410  7918 net.cpp:408] fc8_fc8_0_split -> fc8_fc8_0_split_1
I0821 23:50:10.823580  7918 net.cpp:150] Setting up fc8_fc8_0_split
I0821 23:50:10.823690  7918 net.cpp:157] Top shape: 30 2 (60)
I0821 23:50:10.823828  7918 net.cpp:157] Top shape: 30 2 (60)
I0821 23:50:10.823969  7918 net.cpp:165] Memory required for data: 15875640
I0821 23:50:10.824074  7918 layer_factory.hpp:77] Creating layer accuracy
I0821 23:50:10.824193  7918 net.cpp:100] Creating Layer accuracy
I0821 23:50:10.824303  7918 net.cpp:434] accuracy <- fc8_fc8_0_split_0
I0821 23:50:10.824410  7918 net.cpp:434] accuracy <- label_data_1_split_0
I0821 23:50:10.824522  7918 net.cpp:408] accuracy -> accuracy
…
